best.pt (torch, 26571 bytes, 13 tensors)

weight f4 [224, 8]
0	0x3f4c9143	0.7990915
1	0x3f5832ce	0.8445252
2	0xbf610789	-0.8790212
3	0x400f4d74	2.2391024
4	0xbf83430d	-1.0254837
5	0x3f64e3c3	0.89410037
6	0x3f54fac5	0.83195144
7	0x3ec7a1c6	0.3899061
8	0xbe33c9d4	-0.1755746
9	0xbeb52875	-0.3538243
10	0xbef21538	-0.47281814
11	0xbec5f2b5	-0.38661733
12	0xbcb08602	-0.021548275
13	0xbf605198	-0.876245
14	0x3ea3f709	0.3202441
15	0x3fca6b55	1.5814005
16	0x3d4cf3ba	0.050037123
17	0x3fa8af7e	1.3178556
18	0x3f8a8bbb	1.0823892
19	0xbfa7856f	-1.3087596
20	0x3f601675	0.87534267
21	0x3f908d9d	1.1293217
22	0x3edaf9b5	0.42768636
23	0xbefe651e	-0.4968652
24	0x3fa10991	1.2581044
25	0x4003702a	2.053721
26	0x3ee68f5b	0.45031247
27	0xbe9c1e6b	-0.30491957
28	0x3ed1cf0c	0.40978277
29	0xbfeb3f37	-1.8378667
30	0xbfb3b239	-1.4038764
31	0xbcaebdfb	-0.021330824
32	0xbf724984	-0.94643426
33	0xbfcfa0f8	-1.6220999
34	0x3d3ed3a9	0.046588574
35	0x3fa83280	1.3140411
36	0x3f2f6d05	0.68525726
37	0x3f52570b	0.8216407
38	0xbe032ad6	-0.1280931
39	0x4011d6ac	2.2787275
40	0xbe7ef666	-0.24898681
41	0x3f111613	0.5667431
42	0xbf3a917b	-0.72878236
43	0xbf5b4fb5	-0.856685
44	0xbfd4ff8c	-1.6640487
45	0xbe7b166d	-0.24520274
46	0x3ebf0e94	0.3731581
47	0xbe0112c3	-0.12604813
48	0xbdb366d3	-0.087598465
49	0xbfc8c7a7	-1.5685929
50	0x3e7f8780	0.24954033
51	0xbf6111b6	-0.8791765
52	0x3f7f9d0b	0.99849004
53	0x3f46a935	0.7760194
54	0xbe6e820a	-0.23291793
55	0x3faf8485	1.3712317
56	0xbf46ca41	-0.77652365
57	0x3f03b8af	0.5145368
58	0xbe560545	-0.20900448
59	0x4027ba84	2.620759
60	0x40079217	2.1182916
61	0xbe4280a6	-0.18994388
62	0x3f3d6292	0.7397853
63	0xbee01aef	-0.4377055
64	0xbfee2e14	-1.8607812
65	0xbe188c49	-0.14897265
66	0xbe67de0f	-0.22643302
67	0x401a98a6	2.415567
68	0x40855829	4.1670117
69	0x3f47624c	0.77884364
70	0xbfbfb544	-1.4977193
71	0xbff3452d	-1.9005486
72	0x3ec9f533	0.39444885
73	0x3ee857b4	0.45379412
74	0xbffcd926	-1.9753768
75	0x3fac5ea7	1.3466386
76	0x3f8a015c	1.0781665
77	0xbc90b790	-0.017665654
78	0x3fa3adc2	1.2787402
79	0x3f7e9c28	0.99457026
80	0xbd5c3d67	-0.053769495
81	0xbe7cc495	-0.24684365
82	0xbf8c0c9f	-1.0941352
83	0x3f91606e	1.1357553
84	0xbe8294e9	-0.25504234
85	0x3d7a7798	0.06114921
86	0xbcbeeba5	-0.023305723
87	0xbea9e329	-0.33181122
88	0x3da00d7e	0.078150734
89	0x3d8273f4	0.063697726
90	0x400d0d64	2.2039423
91	0x3e55d164	0.20880657
92	0x3f92c145	1.1465231
93	0x40660bdf	3.5944746
94	0xbf17215b	-0.5903527
95	0xbfa73eb3	-1.3066009
96	0x3f8ddc88	1.1082926
97	0x3fcd7ad6	1.6053112
98	0xbe01bac5	-0.12668903
99	0x3e84549b	0.258458
100	0x3e8d255a	0.2756756
101	0xc019e9bc	-2.404891
102	0x3dc77fda	0.097411826
103	0x3f730707	0.949326
104	0xbf8a60bc	-1.0810771
105	0x3f8b12ee	1.0865152
106	0xbf947caa	-1.1600544
107	0xbe1c94a0	-0.15291071
108	0xc001ec9f	-2.0300672
109	0x3f06accb	0.5260741
110	0xbf04c893	-0.5186855
111	0x3d929996	0.071582004
112	0xbf88f7a8	-1.0700579
113	0xbfa91fd8	-1.3212843
114	0xbc8189ab	-0.015812716
115	0x3f0a5564	0.54036546
116	0x3e26330f	0.16230415
117	0xbf38d8c7	-0.72205776
118	0xbe908785	-0.28228393
119	0xbefe68ef	-0.49689433
120	0x3ef9f54e	0.48819965
121	0xbf90444e	-1.1270845
122	0x3f823463	1.0172237
123	0x3fbd11c5	1.4771048
124	0x3fa2845b	1.2696642
125	0xbfc1badd	-1.5135151
126	0x3e60a471	0.2193773
127	0xbf542cee	-0.8288106
128	0x3f1839e9	0.59463364
129	0xbfb57139	-1.4175178
130	0x3c0665b0	0.008202955
131	0xbe526954	-0.20547992
132	0xbc244506	-0.010026222
133	0xbf352c46	-0.7077068
134	0x3f8d3d72	1.1034377
135	0x40010b9b	2.0163333
136	0xbfcbd89a	-1.5925477
137	0x3d914d8f	0.07094871
138	0xbf137c54	-0.57611585
139	0x3f30b5cc	0.690274
140	0x3dc44984	0.095843345
141	0xbf93bb00	-1.1541443
142	0x3e6de9bb	0.23233692
143	0x3f8f1487	1.117814
144	0x3e922ccc	0.28549802
145	0x3ec169a8	0.37775922
146	0x3f31d415	0.69464236
147	0xbddbd231	-0.1073345
148	0xbf8bc3a6	-1.0919082
149	0xbf8f8a8a	-1.1214154
150	0x3e041bd3	0.12901239
151	0xc03a14c0	-2.9075165
152	0x3f23469f	0.63779634
153	0xbffcf152	-1.9761145
154	0xbf94b196	-1.1616695
155	0xbe9e30a9	-0.308965
156	0xbf54b7cd	-0.8309296
157	0x3f55cf0a	0.8351904
158	0x3ecc561d	0.3990945
159	0xbfb3d21a	-1.4048493
160	0x3efa86fc	0.4893111
161	0xbf7c8441	-0.98639303
162	0xbf3894bb	-0.72101945
163	0x3e258928	0.16165602
164	0x3fa0583f	1.252693
165	0x3f0ad756	0.54234827
166	0xbf880da9	-1.0629169
167	0xbf3a72ac	-0.72831225
168	0xbd02a344	-0.031893983
169	0xbeeba60a	-0.46025115
170	0x3f610c91	0.879098
171	0x3f643fec	0.8916004
172	0xbeb09045	-0.3448507
173	0xbf59975d	-0.8499659
174	0xbfb9e1e0	-1.4522057
175	0xbf519fdc	-0.8188455
176	0xbdae7d49	-0.0851999
177	0x3f9444e9	1.158353
178	0x3f3504ca	0.7071043
179	0x3f02dc85	0.51117736
180	0x3f7426bd	0.9537161
181	0x3d9e80b8	0.07739395
182	0xbed36ed2	-0.41295487
183	0xbed60086	-0.41797274
184	0xbf3e6e0f	-0.74386686
185	0xbf1dc2d7	-0.61625427
186	0xbdf98414	-0.12183395
187	0xbebb2e99	-0.3655899
188	0x3f248175	0.64260036
189	0xbf404c74	-0.7511666
190	0x3f0fa0de	0.5610484
191	0xbe11bc57	-0.14232002
192	0x3f50c62c	0.81552386
193	0xbf04a9cc	-0.5182159
194	0x3f460cf0	0.7736349
195	0xbfb07125	-1.3784529
196	0xbdcfea48	-0.101521075
197	0x3fc919ec	1.5711036
198	0x3f7d8d23	0.9904348
199	0xbf350c96	-0.7072233
200	0x3f1fc479	0.6240917
201	0xbf6a29a7	-0.91469806
202	0xbe46a549	-0.19398989
203	0xbfe735d1	-1.8063298
204	0xbf4777ed	-0.7791737
205	0x3e04ba6e	0.12961742
206	0xbebcd35e	-0.3688001
207	0xbf73d7b0	-0.9525099
208	0x3f05c4d9	0.5225349
209	0x3f1ead7f	0.61983484
210	0x3efb2708	0.49053216
211	0xbf98f75f	-1.1950492
212	0xbfa31210	-1.2739887
213	0xbf54d798	-0.8314147
214	0xc0016804	-2.0219736
215	0xbf83c38c	-1.0294051
216	0xc038e2cb	-2.8888423
217	0x3f455695	0.7708524
218	0xbecd25bf	-0.4006786
219	0x3fe349eb	1.7756933
220	0xbf31149e	-0.69172084
221	0x3edbde70	0.42943144
222	0x3e491d5a	0.19640103
223	0x400a3e28	2.1600437
224	0xbe144f21	-0.1448331
225	0xbe455e51	-0.1927426
226	0xbfd96d42	-1.6986468
227	0x3fbc40a1	1.4707223
228	0xbd94eeb7	-0.07272094
229	0xbfccfbd0	-1.6014347
230	0xbdd4fd49	-0.10399873
231	0x3d8b15c2	0.06791259
232	0x3e8dc6ab	0.27690634
233	0x3ef07500	0.46964264
234	0x3ee4734a	0.4461921
235	0xbfb1c7f5	-1.3889147
236	0x3ffbdfa9	1.9677631
237	0x40387465	2.8821042
238	0x3bad5e61	0.005290792
239	0xbf58077e	-0.8438643
240	0x3eeda473	0.46414527
241	0x3f2fd968	0.6869111
242	0x3e75e8f7	0.2401465
243	0xbfac56bc	-1.3463969
244	0xbf05d642	-0.52280056
245	0x4007d52d	2.1223862
246	0x3eae65a5	0.34061924
247	0xbfc5169d	-1.5397526
248	0xbebefe39	-0.37303331
249	0xbee9eaa5	-0.45686832
250	0x3edff03c	0.43737972
251	0xbf7413e6	-0.9534286
252	0x3eca221c	0.39479148
253	0xbf234ceb	-0.6378924
254	0x3d6c65c8	0.057714254
255	0x3f771b26	0.965258

weight f4 [75, 4]
0	0xbf8b0e0b	-1.086366
1	0xbfd47e32	-1.6601012
2	0xbee68157	-0.45020553
3	0x3f7161d6	0.9428991
4	0xbebfb65c	-0.37443817
5	0x3f94ee03	1.1635135
6	0xbe4b2ed8	-0.19842088
7	0x3f4592c7	0.7717709
8	0xbf67268c	-0.9029319
9	0xbf8fc8d6	-1.1233165
10	0xbcb80b25	-0.022466252
11	0x3e083fb5	0.13305552
12	0xbe5aafe8	-0.21356165
13	0xbc47e89e	-0.012201456
14	0x3ead756d	0.3387865
15	0xbf490030	-0.7851591
16	0x3edb70d2	0.42859513
17	0xbd54bf8d	-0.05194049
18	0x3e9dc5d5	0.30814996
19	0x400d8e8c	2.2118254
20	0x3f598994	0.8497555
21	0x3f911e03	1.1337284
22	0xbfdbef93	-1.7182487
23	0x3eab5865	0.33465877
24	0xbf889d19	-1.0672942
25	0x3f39322a	0.7234217
26	0x3fac9ec7	1.3485955
27	0x3f4787cf	0.779416
28	0x3fa1bfb6	1.263663
29	0x3f90b7fc	1.1306148
30	0x3f0a74c8	0.54084444
31	0xbf0d0767	-0.5508942
32	0x3e21568b	0.1575567
33	0x3fcca897	1.598895
34	0x3e95146d	0.29117146
35	0x3ee23e4c	0.44188154
36	0x3e13229b	0.1436867
37	0xbf9e445f	-1.2364615
38	0xbfb7a6fe	-1.4347837
39	0xbddab920	-0.10679841
40	0x3e415d2e	0.18883201
41	0xbfa3abfe	-1.2786863
42	0xbefdb470	-0.49551725
43	0xbf89e123	-1.0771831
44	0x3dab29ed	0.08357606
45	0xbe09b036	-0.13446125
46	0xbe9e4fea	-0.30920345
47	0x3d30727d	0.043077935
48	0xbf669d99	-0.90084225
49	0xbee698b9	-0.45038393
50	0xbd755ce6	-0.059903048
51	0x4005d22b	2.0909526
52	0x3e150a2d	0.14554663
53	0x3f1b78cd	0.607312
54	0x3fa06391	1.2530385
55	0xbfde703a	-1.7377999
56	0xbf5f66af	-0.8726606
57	0xbfd91113	-1.6958336
58	0x3fb710c9	1.4301997
59	0x3e36735c	0.17817444
60	0xbf5bbdeb	-0.85836667
61	0xbf3c2e80	-0.73508453
62	0xbd51f3e7	-0.051257994
63	0xbd867477	-0.06565183
64	0x3de81693	0.11332431
65	0x3ee2a32e	0.4426512
66	0xbef839bc	-0.48481548
67	0xbea3a8f3	-0.31964836
68	0xc022d0cc	-2.543994
69	0x3f6d472d	0.9268673
70	0xbd96c17d	-0.07361124
71	0xbf908e27	-1.1293381
72	0x3fd9478c	1.6974959
73	0x3fa3d058	1.2797956
74	0x3e547b60	0.20750189
75	0xbfd23223	-1.642155
76	0x3f87c49b	1.0606874
77	0x3f82c02e	1.0214899
78	0x3dc5c455	0.09656588
79	0x3f44241f	0.76617616
80	0x3df98ae6	0.12184696
81	0xbecd8c72	-0.40146214
82	0x3ed49e29	0.41526917
83	0xbf3f2666	-0.74667966
84	0x3e96c9f2	0.29450947
85	0x3ead50cd	0.3385071
86	0x3f9a89af	1.2073268
87	0x3f458fda	0.77172625
88	0x3eb1fdf9	0.34764078
89	0x3fa05c9d	1.2528263
90	0x3de428cc	0.11140594
91	0xbe8a0403	-0.26956186
92	0x3fa5b11b	1.2944673
93	0xbf8f31b9	-1.1187049
94	0xbec82918	-0.39093852
95	0x3edd7123	0.4325038
96	0x3e99f542	0.3006993
97	0x4006e0be	2.1074672
98	0xbfdadbaf	-1.7098292
99	0xbf5ff9f9	-0.87490803
100	0xbeec40ee	-0.46143287
101	0x3fa331d2	1.2749579
102	0xbe02b854	-0.12765628
103	0xbebd426a	-0.36964732
104	0xbeda05e8	-0.4258263
105	0x3caef6d2	0.021357927
106	0x3f13f97b	0.5780255
107	0xbe7e7e36	-0.24852833
108	0xc0112562	-2.2679067
109	0x3faa35e3	1.3297695
110	0xbf0c12d5	-0.54716235
111	0x3fd28c4b	1.6449064
112	0x3efadbc6	0.489958
113	0xbea85a9b	-0.32881626
114	0xbe9961af	-0.2995734
115	0x3f491153	0.7854206
116	0xbed573ee	-0.4169001
117	0xbfe63912	-1.7986166
118	0x3f47816c	0.7793186
119	0x3eb8378b	0.35979876
120	0xbf7514e7	-0.9573502
121	0x3ff5759b	1.9176515
122	0x3f88bea9	1.0683185
123	0x3fd3c16c	1.6543403
124	0x3e629641	0.2212763
125	0xbea13165	-0.31482998
126	0xbf51c4ca	-0.819409
127	0x3e2cb668	0.16866457
128	0xbf6be899	-0.9215179
129	0xbefb5951	-0.4909158
130	0xbe3fd9fc	-0.18735498
131	0xbc105a86	-0.008810645
132	0xbfc9070c	-1.5705276
133	0xbf39f369	-0.7263704
134	0xbf5cbb16	-0.8622297
135	0xbf8f1001	-1.1176759
136	0x3f610f72	0.8791419
137	0xbf3c2d55	-0.7350667
138	0xbfebff0f	-1.8437213
139	0x3f62e371	0.886283
140	0xbf528141	-0.82228476
141	0x3f957e06	1.1679084
142	0x3e50d2c3	0.20392899
143	0xbf56537f	-0.83721155
144	0x3fac67ab	1.3469137
145	0x3e7691c4	0.24079043
146	0x3faaf282	1.3355258
147	0x3f5a37ea	0.8524157
148	0xbf8692cf	-1.0513552
149	0xbe490c9c	-0.19633716
150	0x3de3294b	0.110918604
151	0x3e8ee8b3	0.2791191
152	0xbe03ca3c	-0.12870115
153	0x3f409b0f	0.752366
154	0x3ebf0272	0.37306553
155	0x3f1d0d15	0.61348087
156	0xbf854902	-1.0412905
157	0xbe81380e	-0.2523808
158	0xbf7a2f93	-0.9772884
159	0xbe27f825	-0.16403253
160	0x3e8d3bd3	0.27584705
161	0x3e1fedbf	0.15618037
162	0xbfc1299c	-1.5090823
163	0x3f88f9ea	1.0701268
164	0x3e486b44	0.19572169
165	0x3f2cadae	0.67452514
166	0xbf866495	-1.0499445
167	0xbf8634ab	-1.0484823
168	0x3f509aa1	0.81485945
169	0x3dacd51f	0.08439087
170	0x3f02a76d	0.5103672
171	0x3d8465c1	0.064647205
172	0x3f485764	0.7825835
173	0x3fe75470	1.8072643
174	0x3ef8d754	0.48601782
175	0x3facbf36	1.3495853
176	0x3f4dcdfe	0.80392444
177	0x3ef8e72b	0.48613867
178	0xbf330c2c	-0.6994045
179	0xbef5a479	-0.47977045
180	0xbfdbc145	-1.7168356
181	0x3fe9833b	1.8243173
182	0xbf5cd14c	-0.8625686
183	0x3eb33c4b	0.35006937
184	0xbed89d9a	-0.4230774
185	0xbf84c771	-1.0373365
186	0xc039089c	-2.8911505
187	0xbf1139b5	-0.5672868
188	0xbefa685b	-0.48907742
189	0x3fcdbc7e	1.6073148
190	0x3f201512	0.6253215
191	0xbf693d81	-0.9110947
192	0xbe5ac463	-0.21363978
193	0x3f7cb9f7	0.9872126
194	0x3f0bab3a	0.54558146
195	0xbf46cef9	-0.77659565
196	0x3f32982d	0.6976345
197	0xbfd31e09	-1.6493541
198	0xbf9d2aea	-1.2278721
199	0xba78b948	-0.0009488058
200	0xbeae3377	-0.3402364
201	0xbf9c4e76	-1.2211444
202	0xbd8f2324	-0.069891244
203	0x3cda1f24	0.026626177
204	0x3ecd7388	0.40127206
205	0xbfa7afa9	-1.3100482
206	0x3f9822ef	1.1885661
207	0x3dc78bde	0.097434744
208	0xbd6fd6b3	-0.058554363
209	0x3f0ed314	0.5579083
210	0xbf9d6d95	-1.2299067
211	0x3fc413d8	1.5318556
212	0x3e576c9f	0.2103753
213	0xc00f7742	-2.241654
214	0x3f60341b	0.87579507
215	0xbf94a7b0	-1.1613674
216	0xbe317050	-0.17328
217	0xbf38099c	-0.7188966
218	0xbf76fc60	-0.96478844
219	0xbee35d2b	-0.4440702
220	0x3e3a397e	0.18185994
221	0x3f93ad56	1.1537273
222	0xbefc4bea	-0.49276668
223	0xbf405c96	-0.75141275
224	0xbc8100d5	-0.015747467
225	0x3f9b9e12	1.2157614
226	0xbf22003f	-0.63281626
227	0x3f0d87f2	0.5528556
228	0x3ee5073e	0.44732088
229	0x3f1d3aa9	0.61417633
230	0x3e8f5113	0.27991542
231	0x3e8086be	0.251028
232	0xbfa140d4	-1.2597909
233	0x40158ea8	2.336832
234	0xbf4a9361	-0.7913113
235	0x3de0cc78	0.10976499
236	0xbfee893b	-1.863563
237	0x3ff86a0e	1.9407365
238	0xbf11dc73	-0.56977004
239	0x3fa5265d	1.2902333
240	0x3eab7cc1	0.33493617
241	0x3fb4e124	1.4131207
242	0x3fd89087	1.6919106
243	0x3fb64397	1.4239377
244	0x3ee9224f	0.45533988
245	0xbf10858b	-0.5645377
246	0xbfc480b9	-1.5351783
247	0xbf736122	-0.9507009
248	0x3f668aee	0.9005574
249	0x3f20f637	0.62875694
250	0xbe9d53dc	-0.30728042
251	0x3f82e756	1.0226848
252	0x3e790841	0.24319555
253	0x3f90a3a1	1.1299936
254	0xbf425df3	-0.75924605
255	0x3a0a3312	0.00052718923

weight f4 [27, 4]
0	0x3f3e1bf7	0.7426142
1	0x401e25e2	2.4710622
2	0x3edd143b	0.43179497
3	0x3eaee59f	0.34159562
4	0x3f880828	1.0627489
5	0xbf8f3349	-1.1187526
6	0xbf18da88	-0.5970845
7	0xbf117af9	-0.56828266
8	0x3f88c8db	1.0686296
9	0xbe4bdd77	-0.19908701
10	0x3ee2c6e7	0.44292375
11	0x3efd237d	0.49441138
12	0x3e29e018	0.16589391
13	0xbfb9d23b	-1.4517282
14	0xbe7252e2	-0.2366443
15	0xbffd06c2	-1.9767687
16	0x3f05356b	0.52034634
17	0xbfd54688	-1.666215
18	0x3f3450d1	0.70435816
19	0xbe9e4240	-0.3090992
20	0x3fa70e77	1.3051289
21	0x3fd7e668	1.686719
22	0x3f424a58	0.7589469
23	0x3f50e461	0.8159848
24	0x3f3f3285	0.7468646
25	0xbebce253	-0.36891422
26	0xbf613121	-0.8796559
27	0xbeedcc88	-0.46445107
28	0x3fc0a572	1.505049
29	0xbeeda927	-0.46418115
30	0x3f788052	0.970708
31	0xbfd93ece	-1.6972291
32	0xbe81240b	-0.2522281
33	0x3f496102	0.7866365
34	0xbefedebe	-0.49779314
35	0xbfa051ef	-1.2525004
36	0xbdf2cba0	-0.11855245
37	0x3fca1560	1.5787773
38	0x3fa0be4e	1.2558076
39	0x3f73d25a	0.95242846
40	0xbf800660	-1.0001945
41	0x3e8730f8	0.26404548
42	0xbedc87a4	-0.43072236
43	0xbf1e145a	-0.61749804
44	0xbf9c9040	-1.2231522
45	0xbeeab22a	-0.45839053
46	0x3c76ed0b	0.015071164
47	0xbf5151af	-0.81765264
48	0xbfa60fa5	-1.2973524
49	0xbd4f6ae0	-0.050639033
50	0xbf06d6d7	-0.5267157
51	0xbdb6f5dc	-0.08933613
52	0xbefb646a	-0.49100047
53	0x3ea2b584	0.3177911
54	0xbef5bb8f	-0.47994658
55	0xbdd234da	-0.10263987
56	0x3e025172	0.12726381
57	0xbe9d7b0d	-0.30757943
58	0xbef6675e	-0.48125738
59	0xbf162297	-0.5864653
60	0x3d9aa9c4	0.075519115
61	0x3f898a89	1.0745403
62	0x3c75e2c8	0.015007682
63	0xbe95bbe0	-0.292449
64	0x3e3e26b7	0.18569456
65	0xbdf3ceaa	-0.119046524
66	0x3f98dcae	1.1942346
67	0x3b42f448	0.0029747654
68	0xbe38b06c	-0.1803605
69	0x3f344d87	0.704308
70	0xbeb27baa	-0.34859973
71	0x3f8bf5a8	1.0934343
72	0x3fcdef28	1.608861
73	0xbf568ba5	-0.8380683
74	0x3f69bfb0	0.91308117
75	0x3f550e81	0.83225256
76	0x3ea8a180	0.32935715
77	0x3e167fbb	0.14697163
78	0xc045c0cc	-3.0898924
79	0x40166a3b	2.3502338
80	0xbf9b0826	-1.2111862
81	0x3ceb1e36	0.02870093
82	0x3e927a3f	0.2860889
83	0x3e9e4887	0.3091471
84	0xbd073f34	-0.03301926
85	0x3eb23ad4	0.34810507
86	0xbf50d637	-0.81576866
87	0x3f0e684c	0.55627894
88	0xbf08d463	-0.53449076
89	0x3f708814	0.9395764
90	0xbfa6dd99	-1.3036376
91	0xbeab3d22	-0.33445078
92	0xbf5d1290	-0.8635645
93	0xbe825747	-0.25457212
94	0xbf7d699a	-0.9898926
95	0x3f5ca453	0.8618824
96	0x3e191d3c	0.14952558
97	0x3e0f8574	0.14015752
98	0x3e6d5252	0.23175934
99	0xbf6243ee	-0.883849
100	0x3d1a4229	0.03766075
101	0xbeeaa66c	-0.45830095
102	0x3e488554	0.1958211
103	0xbf10ffc7	-0.56640285
104	0xbf532e8c	-0.824929
105	0xbf9a767c	-1.2067409
106	0xbfb7938c	-1.4341903
107	0xbe7797b5	-0.24178965

weight f4 [12, 3]
0	0x3f292a6c	0.66080356
1	0x3e519d4f	0.20470165
2	0xbf452e44	-0.7702372
3	0x3f2451f3	0.64187545
4	0x3eacac26	0.3372509
5	0xbd0d7d8d	-0.034543563
6	0x3fa64d06	1.2992256
7	0xbeb91a17	-0.36152717
8	0x3f2edb23	0.68303126
9	0xbdf571c4	-0.1198459
10	0x3f159bd5	0.58440906
11	0xbf2953f2	-0.66143715
12	0x3f6b58bd	0.9193228
13	0x3e8cff0e	0.2753834
14	0x3f4faa28	0.8111901
15	0x3e97624f	0.2956719
16	0x3f194920	0.59877205
17	0x3f82e502	1.0226138
18	0x3fde38c6	1.7361076
19	0xbec7130b	-0.38881716
20	0xc0008ab6	-2.0084662
21	0x3fcb152f	1.586584
22	0x3f24d16c	0.6438205
23	0x3e6abff9	0.22924794
24	0xbf902e14	-1.1264062
25	0xbfc1f1fd	-1.5151974
26	0xbe73cb82	-0.23808101
27	0x3e8d3153	0.27576694
28	0x3e7098a9	0.23495735
29	0xbf1afe9e	-0.60544765
30	0x3fb08edd	1.3793598
31	0x3d94fc46	0.0727468
32	0xbf8f8969	-1.1213809
33	0xbf9354d7	-1.1510266
34	0x3c41f0cc	0.011837196
35	0xbfd08f2b	-1.6293691

weight f4 [183, 8]
0	0xbeced516	-0.40396947
1	0xbf6737a4	-0.90319276
2	0xbe55d294	-0.2088111
3	0xbfc50bce	-1.5394228
4	0xbf76d483	-0.9641802
5	0xbf66c14c	-0.901387
6	0x3f2a2794	0.6646664
7	0x3f37bc2c	0.717715
8	0xbf4d5dc4	-0.802212
9	0xbf9704f1	-1.1798383
10	0x3dd596b9	0.10429139
11	0xbf7ad267	-0.979773
12	0xbe6caa22	-0.23111776
13	0x3f84f664	1.0387692
14	0xbf65511c	-0.8957689
15	0x3fcf88f7	1.6213673
16	0x4005f976	2.093351
17	0xbe9cb59f	-0.30607316
18	0xbeecdd44	-0.46262562
19	0x3e520a53	0.20511751
20	0x3eba889e	0.36432356
21	0xbf3df490	-0.742013
22	0xbdcc0d98	-0.0996353
23	0x3e17593b	0.14780132
24	0xbe5b546a	-0.2141892
25	0x3f325800	0.6966553
26	0xbf247119	-0.64235073
27	0x3fa42304	1.2823186
28	0x3ec32444	0.38113606
29	0x3e55378b	0.20821969
30	0x3f104792	0.5635921
31	0x3fc19e87	1.5126504
32	0xbf3f3782	-0.74694073
33	0x3e96ab2a	0.29427463
34	0x3f97b513	1.1852134
35	0xbf29b0a7	-0.66285175
36	0x3ebd5a88	0.36983132
37	0xbddc9dc6	-0.107722804
38	0xbf774a96	-0.96598184
39	0x3f47ab7d	0.77996045
40	0x3e521319	0.20515098
41	0xbd1bcdca	-0.038038053
42	0xc0195bbe	-2.3962245
43	0xbf24fa43	-0.6444437
44	0x3e0f5067	0.13995515
45	0x3f82231f	1.0166968
46	0xbe947bde	-0.29000753
47	0xbf00707a	-0.50171626
48	0xbff6e27f	-1.9287871
49	0xbfd5c02f	-1.6699275
50	0xbdb94579	-0.09046454
51	0xbdea659a	-0.1144516
52	0x3ef651c5	0.4810926
53	0xbec14a4f	-0.37752005
54	0xbf3d3395	-0.7390683
55	0x3eb30312	0.3496328
56	0x3e8da536	0.27665108
57	0xbe81ec56	-0.25375623
58	0x3ecf1e5f	0.4045286
59	0xbea3b08b	-0.3197063
60	0x3f3f3836	0.74695146
61	0x3fb09986	1.3796852
62	0xbfa6bfd3	-1.302729
63	0xbd14d318	-0.036334127
64	0x3f0d70ac	0.5525005
65	0x3fa444dd	1.2833515
66	0x3f10cd71	0.5656348
67	0xbfba45c1	-1.4552537
68	0x3f51c5d0	0.8194246
69	0x3f378513	0.7168743
70	0x3eea93f8	0.45816016
71	0x3f00f957	0.5038046
72	0xbfa0f1ed	-1.257383
73	0xbfe4296b	-1.782514
74	0x3fa06891	1.2531911
75	0x3f8173ad	1.0113426
76	0x3f9df7f6	1.2341297
77	0x3fac0a78	1.3440695
78	0x3f8fae41	1.1225053
79	0x3fe74e59	1.8070785
80	0xbdbb5d54	-0.0914866
81	0x3f3b0dee	0.7306813
82	0x3ee7b950	0.4525857
83	0xbf93019a	-1.1484864
84	0x3e11c3bd	0.14234824
85	0xbf689d8f	-0.90865415
86	0xbfd632df	-1.6734275
87	0xbdf05a45	-0.117359675
88	0x40419aca	3.0250726
89	0x3f29c846	0.6632122
90	0x3fb778f2	1.4333785
91	0x3eafebed	0.34359685
92	0xbe23eca1	-0.16008236
93	0x3db5629a	0.088566974
94	0xc035f0a6	-2.842813
95	0x3f5fe0c5	0.87452346
96	0x3fbe57fa	1.4870598
97	0x3f38f511	0.7224894
98	0xbf9bea8e	-1.2180955
99	0x402757b1	2.6147273
100	0x3ff208cd	1.8908936
101	0x3fa67710	1.3005085
102	0xbfa27240	-1.2691116
103	0xbf1273dd	-0.57208043
104	0x3efcde88	0.49388528
105	0x3fbfdbf6	1.4989002
106	0x3f1c35f1	0.6101981
107	0x4027305b	2.6123264
108	0xbfec6b00	-1.8470154
109	0xbe2b4c3d	-0.16728301
110	0x3fc064f6	1.5030811
111	0xbfaaaa6e	-1.3333261
112	0xbda2c5c5	-0.07947878
113	0x3d7e1762	0.06203402
114	0x3f8adefb	1.0849298
115	0xbf7e4bb2	-0.9933425
116	0x3f1632b7	0.58671135
117	0x400dc5f8	2.215208
118	0xbf648e3a	-0.8927952
119	0x3eb6b031	0.35681298
120	0xbff80ee8	-1.9379549
121	0x401e0181	2.4688418
122	0xbec2c937	-0.3804414
123	0x3f448bf2	0.7677604
124	0x3f634d77	0.88790077
125	0x3f697966	0.91200864
126	0xbfcf4653	-1.6193336
127	0x3eb91b2e	0.3615355
128	0xbf8f808a	-1.1211102
129	0x3eec150d	0.4610981
130	0xbf507477	-0.8142771
131	0xbf056fd3	-0.52123755
132	0xbe976684	-0.295704
133	0xc00eaf59	-2.2294524
134	0x3e1b37a9	0.15157951
135	0xbec8276e	-0.39092582
136	0x3f26f8ea	0.6522356
137	0x3efb4c09	0.49081448
138	0xbdcaa7e7	-0.09895306
139	0xbe8634fa	-0.26212293
140	0xbf599d3d	-0.8500555
141	0xbfa019e9	-1.2507907
142	0x3e24bc98	0.16087568
143	0x3ee2c59b	0.44291386
144	0x3e16b4af	0.14717363
145	0xbee0ac8b	-0.4388164
146	0xbd6b96e7	-0.05751696
147	0x3f538c5f	0.82636064
148	0xbf1d627a	-0.6147839
149	0xbdccae76	-0.09994213
150	0x3e16d4b3	0.14729576
151	0xbeccb1e5	-0.39979473
152	0x3ea3cedd	0.31993762
153	0x39a3aca7	0.0003121842
154	0x3ecd1b54	0.40059912
155	0xbea9920f	-0.33119246
156	0xbfdb7a7e	-1.7146757
157	0xbf2a5879	-0.6654125
158	0x3fbf0bd8	1.492549
159	0x3e7cb021	0.24676563
160	0xbf9f1a94	-1.2429986
161	0x3edae1b9	0.42750338
162	0xbf5a860d	-0.85360795
163	0xbf95ca31	-1.1702329
164	0x3c95d71e	0.018291052
165	0xbf277995	-0.65419894
166	0xbfc3bffa	-1.5292962
167	0x3fd388ea	1.6526158
168	0x3bc2a164	0.0059396494
169	0xbe0592c8	-0.13044274
170	0x3f6a0c4a	0.91425
171	0xbfbdd962	-1.4831965
172	0xbf8c2b65	-1.0950743
173	0xbed550f2	-0.4166332
174	0x3f517d4f	0.8183183
175	0x3f68c51c	0.90925765
176	0x40055301	2.0831912
177	0x3f5cef91	0.8630305
178	0x3f8d946c	1.106092
179	0xbdca00ca	-0.09863432
180	0x3edc0d8c	0.42979085
181	0x3f89aab7	1.0755223
182	0xbe7d4671	-0.24733903
183	0xbe941151	-0.2891946
184	0x3fba28e5	1.454373
185	0xbe882620	-0.26591587
186	0xbfcc1808	-1.5944834
187	0x3ea7c719	0.32769087
188	0x3f6fe831	0.9371367
189	0x3e7601be	0.24024102
190	0xbc795bdb	-0.015219654
191	0x3f459779	0.77184254
192	0x3e82d687	0.25554296
193	0xbf6d2a92	-0.9264308
194	0x3d30eda2	0.043195374
195	0xbfcb573f	-1.5886
196	0xbfa6d073	-1.3032364
197	0xbed8e913	-0.42365322
198	0xbfaadbf0	-1.334837
199	0x3f3b4a50	0.73160267
200	0x3f00796d	0.5018528
201	0x3f12e5f3	0.57382125
202	0x3e7a580e	0.24447653
203	0xbf87a4ce	-1.0597169
204	0xbfab2815	-1.3371607
205	0xbff3abf0	-1.9036846
206	0xbf3c73be	-0.7361411
207	0xbf6deceb	-0.92939633
208	0xbf58d84d	-0.8470505
209	0xbea4f54b	-0.32218394
210	0x3f824e2b	1.0180105
211	0x3eb3cfd7	0.35119507
212	0x3f28fd32	0.66011345
213	0xbf479956	-0.7796835
214	0xbff4bb9e	-1.9119756
215	0xbe793c9c	-0.24339527
216	0xbfc294f4	-1.5201707
217	0x3f419445	0.75616866
218	0x3c01d85f	0.007925122
219	0x3ed0926d	0.40736714
220	0xbfa4a184	-1.2861791
221	0xbeccfdb0	-0.40037298
222	0x3f98a46f	1.1925181
223	0x3ea5d6a0	0.32390308
224	0x3dd70f7a	0.10500999
225	0xbfa3d503	-1.2799381
226	0x3e4dbb8f	0.20091079
227	0x3f8793e3	1.0592006
228	0x3e3b574a	0.18295017
229	0xbe33e50e	-0.17567846
230	0x3eb2128e	0.3477978
231	0xbef3b141	-0.47596171
232	0x3e75a2a4	0.23987824
233	0xbf53f846	-0.8280071
234	0x3f93ff16	1.1562221
235	0x3fa6ebc8	1.3040705
236	0x3f120ebb	0.57053727
237	0x3efd7da0	0.49509907
238	0x3f84f719	1.0387908
239	0x3d82fef0	0.06396282
240	0x3e31da86	0.17368516
241	0xbf493ed6	-0.78611505
242	0x3eb7b986	0.3588373
243	0xbf6e791b	-0.9315354
244	0xbde35b2a	-0.111013725
245	0x3dc15b06	0.094411895
246	0xbf48df76	-0.78465974
247	0xbfce8f17	-1.6137418
248	0xbf2d3aee	-0.67668045
249	0xbf20ba8d	-0.62784654
250	0xbf9db8fc	-1.2322078
251	0xbf13c516	-0.57722604
252	0x3e2019c6	0.15634832
253	0x3d148de0	0.036268115
254	0x3d4bc08b	0.04974417
255	0x3f73a9eb	0.9518115

weight f4 [32, 37]
0	0x3dbba72c	0.09162745
1	0xbdb4b74b	-0.08824023
2	0xbe1ea70b	-0.1549341
3	0x3cdd8d9a	0.02704506
4	0xbd3e80dd	-0.046509612
5	0x397678c0	0.00023505371
6	0x3dbcc458	0.09217137
7	0x3d4dd718	0.050253958
8	0xbda0f0a0	-0.078583956
9	0x3c88cda6	0.016699623
10	0xbe08cf9d	-0.13360448
11	0xbe800c99	-0.2500961
12	0x3e2b64ff	0.16737746
13	0xbd3036fa	-0.04302118
14	0xbe653f76	-0.2238749
15	0xbd216305	-0.039401073
16	0xbb839976	-0.0040160967
17	0xbe29149d	-0.1651177
18	0x3df6d128	0.12051612
19	0x3cd7965e	0.026316818
20	0x3e14b0af	0.14520524
21	0x3d8e988e	0.06962691
22	0x3d01ee58	0.031721443
23	0xbe01d570	-0.12679076
24	0x3c141f9e	0.009040741
25	0x3e32438a	0.17408577
26	0x3e053834	0.13009721
27	0x3d9a2f83	0.075285934
28	0x3d313501	0.04326344
29	0xbce6fd8d	-0.028197074
30	0x3e20e807	0.15713511
31	0xbdcaa9b3	-0.09895649
32	0x3da64e7e	0.0812044
33	0xbdb97173	-0.09054842
34	0xbdc4e3bd	-0.0961375
35	0xbe3561c1	-0.17713071
36	0x3d94ffe5	0.072753705
37	0xbc440e94	-0.011966366
38	0xbde91a7d	-0.11382005
39	0xbe752b94	-0.23942405
40	0x3de8abec	0.113609165
41	0xbd27b0ff	-0.04094028
42	0x3d3a7caa	0.045529045
43	0xbd991622	-0.074749246
44	0x3d87ecc0	0.06636953
45	0x3d0c1a4f	0.034204777
46	0xbd8de829	-0.06929047
47	0x3d7e6865	0.062111277
48	0xbe3d9427	-0.18513547
49	0xbc93a1f9	-0.01802157
50	0x3e3db1e1	0.18524887
51	0x3e0e51b2	0.13898352
52	0xbe1119fe	-0.14170071
53	0x3e61440b	0.21998613
54	0x3d983dfb	0.07433697
55	0xbd877747	-0.06614547
56	0x3cc1ce31	0.02365789
57	0xbdeae70a	-0.114698485
58	0x3e024150	0.12720227
59	0xbdd0ad8e	-0.10189353
60	0xbda8066c	-0.0820435
61	0xbca4a629	-0.020098763
62	0xbe1f8a4c	-0.155801
63	0xbcdccb61	-0.026952447
64	0x3d42b658	0.047537178
65	0xbcd2ed53	-0.02574793
66	0xbda16474	-0.07880488
67	0x3e292de8	0.16521418
68	0xbd153540	-0.036427736
69	0xbd4c4f16	-0.04988011
70	0xbc60361f	-0.0136847785
71	0x3cb23d6c	0.021757804
72	0xbdeeca0e	-0.116596326
73	0x3e3bbee3	0.18334536
74	0xbdb40cde	-0.08791517
75	0x3dd109ba	0.10206933
76	0x3dc1cd77	0.094630174
77	0x3c6a921e	0.014317064
78	0x3d7f2183	0.06228782
79	0xbe48bcf0	-0.19603324
80	0xbdea8a63	-0.114521764
81	0xbdea5340	-0.1144166
82	0x3d84bbee	0.06481157
83	0xbc00d32e	-0.007862849
84	0xbe6bc2d6	-0.23023543
85	0xbd17bbf4	-0.03704448
86	0xbcf9c359	-0.030488657
87	0x3e3f95c4	0.18709475
88	0x3ddc876f	0.107680194
89	0x3d02924d	0.031877805
90	0x3ce07cd5	0.027403275
91	0x3dc73947	0.09727722
92	0xbd364bd9	-0.044505928
93	0x3ca4e8c8	0.02013053
94	0xbe1d10ed	-0.15338488
95	0xbd987c11	-0.07445539
96	0x3dd58c76	0.104271814
97	0xbdd3785a	-0.103256896
98	0x3d7639f1	0.06011385
99	0x3ddc8241	0.107670315
100	0x3e54426a	0.2072846
101	0x3d5bb6d8	0.05364117
102	0xbd0f0051	-0.03491241
103	0xbdafe8ff	-0.08589362
104	0xbdc95968	-0.09831506
105	0x3da15044	0.078766376
106	0xbd43c9d0	-0.047799885
107	0x3da1fce0	0.0790956
108	0x3dffafda	0.12484713
109	0x3dd7053c	0.10499045
110	0xbdec7b7d	-0.11546991
111	0x3c08ef12	0.00835778
112	0xbd1a06af	-0.03760403
113	0x3e4ddff5	0.20104964
114	0xbdac218f	-0.08404838
115	0x3d961c08	0.07329565
116	0x3d92e79d	0.07173083
117	0xbcbc0c07	-0.022954954
118	0xbd84948d	-0.06473646
119	0x3d50143d	0.05080055
120	0x3ca3dc5b	0.020002535
121	0xbcc9d860	-0.024639308
122	0x3dbc90ed	0.0920733
123	0x3d2f236b	0.042758387
124	0x3dd3af41	0.103361614
125	0x3e9fe2f7	0.31227848
126	0xbdce51ab	-0.10074171
127	0xbbbddd85	-0.0057942295
128	0x3ec4b509	0.3841937
129	0xbdacdd3d	-0.08440635
130	0xbc7ff2b0	-0.015621826
131	0x3d933e58	0.071896255
132	0xbe6568be	-0.22403237
133	0x3e4c33a0	0.19941568
134	0xbe170173	-0.14746647
135	0xbdce9c1f	-0.100883715
136	0xbbfcb677	-0.007712181
137	0x3c607b7e	0.013701318
138	0x3e40eed6	0.18841109
139	0x3e384205	0.17993934
140	0x3d8a9b2e	0.067678794
141	0xbbfc0565	-0.0076910728
142	0xbd12a48b	-0.03580145
143	0xbd842073	-0.06451502
144	0x3ca4faca	0.020139117
145	0xbd3e7cbd	-0.04650568
146	0x3cd73cc9	0.026274102
147	0xbd0d9961	-0.0345701
148	0x3c42b7a4	0.011884604
149	0xbd912592	-0.07087244
150	0xbd1b434f	-0.037905987
151	0x3e0a6b50	0.13517499
152	0x3e8398d9	0.2570255
153	0x3cdefcb6	0.027220111
154	0xbd2a6df5	-0.04160877
155	0x3c126b98	0.008936785
156	0x3d07e33d	0.033175696
157	0x3cd92830	0.02650842
158	0xbe0d19e6	-0.1377941
159	0xbe1a821a	-0.15088692
160	0x3e2361db	0.15955298
161	0xbcde3f5d	-0.027129823
162	0xbc8c33e7	-0.017114593
163	0x3e8fbc5d	0.28073397
164	0xbe21bdb8	-0.15795028
165	0x3db42973	0.08796968
166	0x3e22fbc5	0.15916355
167	0x3de657a6	0.11247186
168	0xbd91a1d5	-0.07110945
169	0xbe44a057	-0.1920179
170	0x3e0a9207	0.13532268
171	0xbe041caa	-0.1290156
172	0x3d0cbb74	0.034358457
173	0x3e4aaab9	0.19791688
174	0x3d57b562	0.052663215
175	0xbca789c7	-0.02045144
176	0xbd056df1	-0.03257555
177	0xbe2ccb96	-0.16874537
178	0xbcff08c8	-0.031132117
179	0xb99ae41a	-0.00029543118
180	0xbe1e0383	-0.15431027
181	0xbe258494	-0.16163856
182	0x3e2ed51b	0.17073481
183	0xbe22cad4	-0.15897685
184	0xbaca7152	-0.0015445149
185	0xbde6d84f	-0.11271726
186	0xbac1be3e	-0.0014781428
187	0xbdf2d926	-0.11857824
188	0xbd14c6c7	-0.03632238
189	0x3e029a81	0.12754251
190	0xbe157dc4	-0.14598757
191	0xbd928dd1	-0.071559556
192	0x3dd2e6d8	0.10297936
193	0xbdb38205	-0.08765034
194	0xbe35c068	-0.17749178
195	0xbd52c4f1	-0.05145735
196	0xbe104b4e	-0.14091226
197	0x3d4a93e9	0.049457464
198	0xbdca9ecc	-0.09893569
199	0x3e463136	0.1935471
200	0x3cea73a4	0.028619595
201	0x3e0a4d17	0.1350597
202	0xbce7d350	-0.028299004
203	0xbdb3acc5	-0.087731875
204	0x3e5a9be3	0.21348529
205	0xbcf87dc0	-0.0303334
206	0xbdb0c8c1	-0.08632041
207	0xbcb27a76	-0.02178691
208	0xbda8880a	-0.082290724
209	0x3e853983	0.2602044
210	0xbe62cf8a	-0.22149482
211	0x3dec2aa2	0.11531569
212	0xbbc62e9e	-0.0060480377
213	0x3dc3df52	0.09564079
214	0xbdd31f80	-0.103087425
215	0x3d46e272	0.0485558
216	0xbe0b1f5c	-0.13586181
217	0x3d8bd79d	0.06828234
218	0x3d7a8926	0.06116595
219	0x3d026644	0.03183581
220	0xbe2ce53c	-0.16884321
221	0xbcf87730	-0.03033027
222	0x3e206293	0.15662603
223	0x3dd8f02b	0.105926834
224	0xbc65a964	-0.014017437
225	0x3d02333e	0.03178715
226	0xbc95df9e	-0.018295106
227	0xbd4bfaf1	-0.049799863
228	0xbdbedf90	-0.09319985
229	0xbdde1ee4	-0.10845736
230	0xbd3cc7c1	-0.046088938
231	0x3d8f3825	0.069931306
232	0x3e05c3f3	0.1306303
233	0x3e8f5bd9	0.27999762
234	0x3e831c5c	0.25607574
235	0x3da76167	0.08172875
236	0x3e2ce207	0.16883098
237	0x3c2a90b8	0.01041048
238	0x3c15759b	0.009122278
239	0x3c7620e5	0.015022491
240	0x3dfe591c	0.1241934
241	0x3da6850b	0.08130845
242	0xbcacf6e6	-0.021113824
243	0xbbfa84d6	-0.00764523
244	0xbe35867f	-0.17727087
245	0xbd546af8	-0.051859826
246	0x3e6d9b07	0.2320367
247	0xbdd1a5d4	-0.10236707
248	0xbd2cdea6	-0.04220452
249	0x3d968f31	0.0735153
250	0x3b88a1df	0.004169687
251	0xbb8cc3c6	-0.004295799
252	0xbd6b72ff	-0.057482716
253	0xbce57740	-0.028010964
254	0xbb9d0d71	-0.004792862
255	0xbe00330f	-0.12519477

bias f4 [32]
0	0xbd62b517	-0.055348482
1	0x3d90fb92	0.07079233
2	0x3ba89a9b	0.0051453835
3	0x3ca889f6	0.020573597
4	0x3de95324	0.11392811
5	0xbe03a57b	-0.12856095
6	0x3df2e89e	0.118607745
7	0xbe19cba4	-0.15019089
8	0xbdccc6e7	-0.09998875
9	0x3d75ded7	0.06002697
10	0xbc3ad68f	-0.011403694
11	0x3e1a88d8	0.15091264
12	0x3dddda52	0.10832657
13	0xbdb1317d	-0.08652017
14	0xbd2bbfa6	-0.041930817
15	0xbd26235a	-0.040561058
16	0x3e19b330	0.15009761
17	0x3ba997bd	0.0051755593
18	0x3e00cba7	0.12577687
19	0x3e15b8eb	0.14621322
20	0x3d5f655c	0.054540023
21	0xbdb1c355	-0.08679835
22	0x3d18fdcb	0.03735141
23	0x3e20d0a5	0.15704592
24	0xbd5e0afd	-0.054209698
25	0x3de5cf44	0.112211734
26	0x3e1323c0	0.14369106
27	0x3dca4755	0.09876887
28	0xbdc2ff63	-0.095213674
29	0x3d89c03b	0.06726118
30	0x3d93cae3	0.07216432
31	0x3e0f7d9b	0.14012758

weight f4 [32]
0	0x3f81490c	1.0100417
1	0x3f703be1	0.9384137
2	0x3f72544f	0.94659895
3	0x3f8422b9	1.0323097
4	0x3f82dc37	1.0223454
5	0x3f77e227	0.96829456
6	0x3f84dba6	1.0379531
7	0x3f80e6f8	1.0070486
8	0x3f7b3585	0.9812854
9	0x3f7a2b46	0.9772228
10	0x3f71ac25	0.94403297
11	0x3f6ee130	0.9331236
12	0x3f6682ff	0.90043634
13	0x3f80aa43	1.005196
14	0x3f787cac	0.97065234
15	0x3f80dd5c	1.0067554
16	0x3f6fed24	0.9372122
17	0x3f78ef57	0.97240204
18	0x3f81698b	1.0110334
19	0x3f84597c	1.0339808
20	0x3f8610bd	1.0473858
21	0x3f7b9ecf	0.982892
22	0x3f82cb7b	1.0218347
23	0x3f7ac979	0.9796367
24	0x3f84a4cc	1.0362792
25	0x3f83fb08	1.0310984
26	0x3f7c06e3	0.9844801
27	0x3f6f3679	0.93442494
28	0x3f70cbd6	0.9406103
29	0x3f83f690	1.030962
30	0x3f807fda	1.0039017
31	0x3f57f86d	0.8436344

bias f4 [32]
0	0xbe02285d	-0.1271071
1	0xbdb500cf	-0.08838045
2	0xbd85b273	-0.06528177
3	0xbdc4de91	-0.09612764
4	0xbe0ea04b	-0.13928334
5	0xbde2c430	-0.11072576
6	0xbddb0e21	-0.10696054
7	0xbe126d4a	-0.14299503
8	0xbd6e0851	-0.0581134
9	0xbdfb99ae	-0.122851714
10	0xbbb8e16a	-0.005642106
11	0xbd0e1523	-0.034688126
12	0xbe19f0cd	-0.15033264
13	0xbe4b988f	-0.19882415
14	0xbd1c0d75	-0.03809877
15	0xbe6b0673	-0.22951679
16	0xbdef7f25	-0.11694173
17	0xbcd6f9e3	-0.026242202
18	0xb95134e2	-0.00019951494
19	0xbe42bff8	-0.19018543
20	0x3d9e01ce	0.07715188
21	0xbd9ab5eb	-0.07554229
22	0xbd0b57ce	-0.034019284
23	0xbdf0da05	-0.11760334
24	0xbdcc8cd0	-0.09987795
25	0xbdf848b6	-0.121232435
26	0xbd445d79	-0.047940705
27	0xbd81d08a	-0.06338604
28	0xbd81d8eb	-0.06340202
29	0xbcbe4419	-0.02322583
30	0xbd48a3bb	-0.04898427
31	0xbe3d7e1d	-0.1850514

running_mean f4 [32]
0	0xbd35792e	-0.04430502
1	0x3d8b4701	0.06800652
2	0x3e20f917	0.1572002
3	0xbd635cbe	-0.055508368
4	0x3e8c9575	0.27457777
5	0xba9be930	-0.0011895057
6	0x3dd8fb80	0.10594845
7	0xbe84f5eb	-0.2596887
8	0xbde10e70	-0.10989082
9	0x3db03ebc	0.08605716
10	0x3c48b450	0.012250021
11	0x3e7916be	0.24325082
12	0x3e05e519	0.13075675
13	0x3c701360	0.014653057
14	0x3dab3fd5	0.08361784
15	0x3dae6df8	0.085170686
16	0xbcd588b4	-0.026066162
17	0x3cb23221	0.021752419
18	0xbdcebef3	-0.100950144
19	0x3b949d72	0.0045353705
20	0x3dcee916	0.10103051
21	0x3bd8d8cd	0.0066176415
22	0x3e803379	0.2503927
23	0xbbe44120	-0.0069657713
24	0xbc26639b	-0.010155584
25	0x3dbc60e0	0.09198165
26	0x3e494552	0.1965535
27	0x3e330de5	0.17485769
28	0xbd9c0e0c	-0.07619867
29	0xbd329bb1	-0.04360551
30	0xbde8153e	-0.113321766
31	0x3e28c63a	0.16481867

running_var f4 [32]
0	0x3ec80bbc	0.39071453
1	0x3effd73d	0.499689
2	0x3f0d0dd3	0.5509922
3	0x3f14f06f	0.5817937
4	0x3f082155	0.5317586
5	0x3f12145c	0.57062316
6	0x3ee15035	0.44006506
7	0x3efd593d	0.49482146
8	0x3f09dfe1	0.5385724
9	0x3efb599d	0.49091807
10	0x3ed21a09	0.41035488
11	0x3f0e11f3	0.5549614
12	0x3ec75eee	0.38939613
13	0x3eebc63a	0.46049672
14	0x3ec6ecc5	0.38852516
15	0x3f165a0c	0.5873115
16	0x3ed8bc52	0.42331177
17	0x3f040cc5	0.51581985
18	0x3f1516df	0.58238024
19	0x3ef3b801	0.4760132
20	0x3f02024c	0.50784755
21	0x3f0dc521	0.5537892
22	0x3ed34e3f	0.41270635
23	0x3ee2ddcd	0.44309846
24	0x3f11250b	0.5669715
25	0x3f329912	0.69764817
26	0x3ef6efbf	0.48229787
27	0x3f0bf936	0.5467714
28	0x3ee177b1	0.4403663
29	0x3f149486	0.5803913
30	0x3ee848b2	0.45367962
31	0x3f094875	0.53626186

weight f4 [2, 32]
0	0xbcb7ced6	-0.022437494
1	0x3d4c008b	0.049805205
2	0xbccad726	-0.024760794
3	0xbcce293b	-0.025166145
4	0x3dfc0e8a	0.123074606
5	0xbdcfdbe8	-0.10149366
6	0x3e6d0247	0.231454
7	0x3da26bbe	0.079307064
8	0x3c2ad413	0.010426539
9	0x3e2c256f	0.16811155
10	0x3d9174ce	0.07102357
11	0xbd182f75	-0.037154634
12	0x3d0e1f67	0.034697916
13	0x3d917ba9	0.071036644
14	0xbc54b8cb	-0.012983511
15	0xbd1fc39a	-0.0390049
16	0xbdc5e80c	-0.096634
17	0xbca73614	-0.020411529
18	0x3de18f16	0.110136196
19	0x3d2f8824	0.042854443
20	0xbdd59989	-0.10429675
21	0x3d803b9d	0.0626137
22	0xbe32fb15	-0.17478593
23	0x3d6b9613	0.05751617
24	0xbd268b84	-0.040660396
25	0xbe53bd4e	-0.20677683
26	0x3e323252	0.17402008
27	0xbbe9719a	-0.007124138
28	0x3d3f9327	0.046771195
29	0xbdecd267	-0.115635686
30	0xbcf71ba9	-0.030164557
31	0x3cac52ba	0.02103554
32	0xbe4cc06f	-0.19995283
33	0xbdb62cd4	-0.08895269
34	0x3ded0684	0.115735084
35	0x3e374891	0.17898776
36	0xbd363b15	-0.04448994
37	0x3bbd99aa	0.0057861404
38	0x3d062c5e	0.032757156
39	0xbd8e88ca	-0.06959684
40	0x3e086b7d	0.13322254
41	0x3d456139	0.048188422
42	0xbd3f324f	-0.046678837
43	0x3d935525	0.071939744
44	0x3de3667e	0.11103533
45	0xbdcaa0ec	-0.09893975
46	0xbe07d01d	-0.13262983
47	0x3e0d4a10	0.13797784
48	0xb9b834cb	-0.0003513455
49	0xbe10490e	-0.14090368
50	0xbe35a79a	-0.17739716
51	0x3e61acd3	0.22038583
52	0x3e0a05f2	0.1347883
53	0xbdc7779d	-0.09739611
54	0xbc854931	-0.016270252
55	0xbd863074	-0.065522105
56	0x3df8db7e	0.1215124
57	0xbce3273f	-0.027728675
58	0xbb583606	-0.0032991185
59	0xbdffe299	-0.12494392
60	0xbcdd27ba	-0.026996482
61	0x3d6922ee	0.056918077
62	0x3e0254da	0.12727681
63	0xbd2c8767	-0.042121317

bias f4 [2]
0	0xbe131a74	-0.1436556
1	0xbd970137	-0.073732786
